model/model.pth (torch, 515368 bytes, 8 tensors)

conv1.weight f4 [16, 3, 3, 3]
00000000: decb 3fbe 7afa acbe 553a 533b bf0d 8d3e
00000010: 0468 da3e 5924 693e c390 cebd 6571 10be
00000020: 00b1 2abe 401f f7bc dff9 c4be dfca fd3d
00000030: 8b8f a83e 45a8 a23e b63f 643e 2f67 87bd
00000040: 62e4 c7bd e1c5 2ebe 07b2 83be e54a b4be
00000050: 406c 0ebe 70e3 bc3e 2d82 043f c0c5 ee3e
00000060: 0667 debd 7031 77be 5b41 99be e08e 1bbc
00000070: d456 a4be 36d2 a7be ed9b 9b3e 9b0e 6e3e
00000080: 3d9d 9c3e 74cd a13e d87e f83e ba99 ce3e
00000090: 0350 e8bd 9a7d b8be f52a a7be 8304 6cbe
000000a0: c3cb 80be 6482 e5be b0ad f5bd 82f9 babe
000000b0: 33bb afbe 3788 4f3e 2637 8a3d 0f41 0a3f
000000c0: ae63 c23d 8c7d 0abe f8e5 153e 7f38 463e
000000d0: c29c 0ebe b730 c13d c167 8dbe c65e 04bf
000000e0: e78c 58be 0a95 b1bd 2492 9dbc a0ec 843e
000000f0: 0357 533e c6a4 fd3e cd2d f83e e458 763e
00000100: 10cf b1be 40fc 1fbd 3b31 5dbe a4cb 95be
00000110: 53e5 86bd 50be 053e 3d69 793d a4af 19bd
00000120: 2986 d03e d008 e03d 5212 bc3c c711 38be
00000130: d421 4fbd f55e 943c 4416 05be 369a b9bd
00000140: b8fd 5b3e c56a f83e 7a79 3b3e 4079 d9be
00000150: 2762 d03e 8ba2 c53d d6b9 b0be 3167 a73e
00000160: 4b36 883e 6e05 9bbd f77d 513d fa19 0abe
00000170: 9d4b 353d c00a de3c 22b5 41be b91b 69be
00000180: f634 ca3d 5a8a 4abe 8a4c c1be b6ce 053d
00000190: ad55 40bd e229 893e e37a 3bbe 5a35 03be
000001a0: 6464 823e d53a 30be 126a 303d 6627 cd3d
000001b0: 8940 583e 5e04 823e 9a2a 9c3d b40c 093e
000001c0: e34b f3be ce50 83be b97b 7dbe de80 e1be
000001d0: 9258 ee3d b3fe 423e 807b 59bc c1d6 c9bc
000001e0: e051 be3e a42d 86be 09b0 95bd f576 d23c
000001f0: df76 d4be 1c1e ae3c 2bc8 903b 6264 143d
00000200: 382e 8bbd 7d58 b73e b2fd 5d3d c9c6 80bc
00000210: 1ef7 b7bd c229 b3bd 59b3 d13e db5c a63e
00000220: 6e36 4fbe f2f2 96be 443c 3d3d 2c75 a3bb
00000230: dd99 62be 572f 6c3e 05df 953e 583f 50bd
00000240: 3ae8 d539 1d4a 17be 3822 fabd 46e3 433e
00000250: 1343 70be e7e2 8dbe f624 193e f2a5 523d
00000260: 9c2e 34be 275a 53be a02a 64be 36b4 553e
00000270: 01a3 d63d 3d10 25bc adba cbbd 857d 113e
00000280: 4895 7a3e 5b86 703e f2ed abbe dde3 1bbe
00000290: 0568 d43e 0422 9abe d4c5 603e 71f4 db3e
000002a0: 94ce 643d 3869 a83e 9751 0dbe 59a2 65be
000002b0: 00e4 64be 1e18 13bd bad6 bebe 4e4f 5f3d
000002c0: cad7 d43d 3491 aa3d 0caf 1e3e 7400 2ebe
000002d0: ac16 1f3e 7edc 79be 8fbf 2bbc 841f f1bd
000002e0: 308f 9f3d 4a16 113e a5f3 9cbd 5ad9 e63d
000002f0: dbf4 f53d f58d 47be 7ee5 08bf d842 39be
00000300: 4071 a3bc 27d5 f13d 415d 6cbe 382d 803e
00000310: a1e0 4b3d 537f e63d f6bc f6bd 82d9 fc3d
00000320: 8019 6e3e 9ad7 153d 7f7f 393e 94f4 373e
00000330: 4abb cb3e 069b 5f3e 8cf4 363d 92ce 83be
00000340: 18f5 7dbe 4e87 14be 1fc7 4e3d d249 f63c
00000350: ac54 bcbd 08fb d03d ca1a 15be f938 84b9
00000360: c77f 083f eb7d b23e f689 e03d 7622 0f3f
00000370: 064b 42be 4382 d4be 192d b63e 9ff7 74be
00000380: 1a3c 01bf d731 c6bd c5a4 5abd be6e 9bbd
00000390: 66c4 063e 4a52 c7bd 4610 8ebd e545 18bc
000003a0: 20fa 3cbe 2c8d 7ebe 72dc 90be 98df 9abc
000003b0: 023f 39be 2af4 30be b5c1 e4bd 4406 1a3e
000003c0: 58b3 103e 725f 173d 852c b23e 47ea 013e
000003d0: c550 c8be ce31 92bd 5a7a db3e b50a b43e
000003e0: 1913 ccbe 77e4 cabe 927e 3e3e cccf 453e
000003f0: 794d 763e 2cc2 cbbe dd21 1a3e af45 333e
-0.18730113 -0.33784848 0.0032230814 0.2754955 0.42657483 0.22767772 -0.10086205 -0.14105757
-0.16669083 -0.030166268 -0.38471887 0.1239221 0.32922015 0.31769004 0.22289929 -0.066114776
-0.097603574 -0.17067672 -0.25721762 -0.3521339 -0.13908482 0.3689227 0.5176113 0.46635246
-0.10859494 -0.24139953 -0.29932675 -0.009494513 -0.32097495 -0.32777566 0.303924 0.23247759
0.30588713 0.3160206 0.48534274 0.4035166 -0.11343386 -0.36033326 -0.3264996 -0.23048596
-0.25155458 -0.44826043 -0.11996019 -0.36518484 -0.3432251 0.20266806 0.067488 0.5400552
0.09491669 -0.13524455 0.14638507 0.19357489 -0.13926986 0.0943312 -0.2761822 -0.5170711
-0.211475 -0.08671005 -0.019234724 0.2596178 0.20638661 0.49539775 0.48472443 0.24057347
-0.3472829 -0.039058924 -0.21600811 -0.29256928 -0.06586709 0.1306088 0.06089138 -0.03752102
0.40727356 0.10939181 0.022957955 -0.17975532 -0.05056937 0.018111685 -0.12996775 -0.090626165
0.21483505 0.4851896 0.18308058 -0.4247532 0.40699884 0.09650143 -0.34516782 0.32695916
0.26603922 -0.07569395 0.05114552 -0.13486472 0.044261564 0.027104735 -0.18916753 -0.22764482
0.09873383 -0.1977934 -0.37753707 0.032667838 -0.046956707 0.26789767 -0.18308596 -0.12813321
0.25467217 -0.17209943 0.043069907 0.1001728 0.21118368 0.25393957 0.07625313 0.13383752
-0.47518834 -0.25647587 -0.24754228 -0.4404363 0.11637987 0.19042473 -0.013274074 -0.024638535
0.3717184 -0.26206696 -0.07308967 0.025691489 -0.4149694 0.021254592 0.004418393 0.036228545
-0.06795925 0.358097 0.05419702 -0.015719788 -0.08982681 -0.08748199 0.40957144 0.32492718
-0.20235607 -0.29482228 0.046200052 -0.004988333 -0.22129007 0.23064934 0.29271713 -0.05084166
0.00040799548 -0.14774366 -0.12213558 0.19129667 -0.23463087 -0.27712175 0.14955506 0.05142779
-0.17595905 -0.20639859 -0.22281885 0.20869526 0.10480309 -0.010074672 -0.09947715 0.14208038
0.24471009 0.23488753 -0.33579975 -0.15223642 0.4148561 -0.30104077 0.21950465 0.42959931
0.05586107 0.32892776 -0.13800655 -0.22425212 -0.223526 -0.03591167 -0.37273198 0.05451899
0.10392721 0.083284765 0.15496463 -0.1699236 0.15535992 -0.24400517 -0.010482683 -0.11773589
0.07790983 0.14168659 -0.07663659 0.11271925 0.12009593 -0.19487746 -0.5347518 -0.18091905
-0.019951463 0.11808234 -0.23082449 0.250345 0.04977477 0.11254754 -0.1204776 0.12346174
0.23251915 0.036582567 0.18115042 0.17964393 0.39791328 0.2183648 0.04466681 -0.25743538
-0.24800527 -0.1450474 0.050482865 0.030064497 -0.091958374 0.102041304 -0.14561 -0.0002521945
0.5331997 0.34861693 0.10963814 0.5591196 -0.18973932 -0.41505632 0.35581282 -0.23922585
-0.5048233 -0.09677475 -0.053379793 -0.07589482 0.13160858 -0.09732492 -0.06936698 -0.009294008
-0.1845479 -0.2485854 -0.28293186 -0.018905446 -0.18090442 -0.17280641 -0.11169759 0.15041453
0.14130914 0.036956258 0.3479959 0.12687026 -0.39124122 -0.07138406 0.42866784 0.3516442
-0.3985832 -0.3962743 0.1860297 0.1931755 0.24052991 -0.3979658 0.1505198 0.17507051

conv1.bias f4 [16]
00000000: 3534 35be b7df a3be c042 26bd 06be 33be
00000010: 882f 78bd 9cea 3bbd 218e 95bd f00a 253d
00000020: 16b7 2abe a46d 20be 99b2 69be aeea 1cbe
00000030: 3550 dbbd d79b 95be 13e8 abbe 5c74 1dbe
-0.17695697 -0.32006618 -0.040591 -0.17552957 -0.060592204 -0.045878038 -0.073024996 0.040293634
-0.16671404 -0.15666825 -0.22822036 -0.15323898 -0.10708658 -0.2922046 -0.33575496 -0.15376419

conv2.weight f4 [32, 16, 3, 3]
00000000: f3a5 fbbc e02d 9ebd 081b cebd af07 ccbc
00000010: 74ae 6fbd 0fc8 9ebd 9fb5 d73c a787 153e
00000020: f6fc 123d 444b 04bd 769f a5ba ce66 78bc
00000030: 71e3 513c 5ef3 cb3d 38c9 1e3e 37c7 573c
00000040: 0f18 b6bc e431 70bd 4912 84bd e63e 39bd
00000050: 777c bbbc bb94 1dbd a311 073e 7d14 123e
00000060: f5db 553d 8a7c 2cbd 35dd 2cbd d1eb 3bbc
00000070: e033 5abd 53a2 14bb 2615 a43b 2a9a acbd
00000080: 13cc f9bd 1b75 83bd 64c4 26bd b08b b3bd
00000090: f5ca f73c 0ce1 46bc cb54 193c 0371 103c
000000a0: 8d17 97bd b1cb 2ebe fc87 36bd ce54 b0bc
000000b0: 3456 81bd 5f29 c3bd 5257 1abe 708c d5bd
000000c0: 75df bdbd b264 693d ca8d 113e e1c4 d13b
000000d0: 0106 a73d bfef a83d 0c49 55bd 66db 60be
000000e0: e72c f7bd c512 28be 01e1 c1bc 1abd fbbc
000000f0: b287 763e 7616 e23c bc9d de3c a102 c9bc
00000100: 16ba 8cbc a707 4abc 6ac4 a7bd c67d 5ebd
00000110: de8c 063d 98dc 84bc 2619 013e 5230 fd3d
00000120: decb 92bd f659 af3c 5dd3 86bd 8546 3dbd
00000130: 9250 00be 9b63 54bd 4b55 b6bd c92b d0bb
00000140: f0b3 21be 7091 31be 7f8d 8fbd cdb7 b7bd
00000150: 996d d3bd d2ae eabd c376 7ebd b858 e9bd
00000160: 8e2e e2bd b3d7 ae3c 844e 163d b352 813d
00000170: f4e7 d93d 5db4 bcbd 9a26 ffbd bd9a b2bd
00000180: 2e31 f5bc 94d3 4f3d b803 783d df80 0ebc
00000190: 917f b83c 4ada ea3c 30ec 82bd 9d4f a3bd
000001a0: 9b2d 83bd 2551 b43b bb76 1b3e 2fb8 00bd
000001b0: 764c 7fbd 832e b5bd ab13 74bd 0341 6dbd
000001c0: 6718 71bc fb31 8f3d 1b0e 91bd ee9d 3dbd
000001d0: 3187 6b3b 0b6d 29bb 9e28 893d 79c5 493d
000001e0: 5a8e 733c f6cd 1ebd 7dec 70bd 8bb0 b8bd
000001f0: 64ce b0bc afd8 e0bc bdf6 e8bc 4cf1 d0bd
00000200: fc39 013d 56a6 14bd 8a75 0cbe 7cb9 12be
00000210: fe88 12bd 4200 ccbd 65e2 063e bf03 863d
00000220: b3d4 53ba 0ecd 703b b234 e23c 1eaa 5e3d
00000230: af53 9b3c f289 ad3d 6e6b a13d af2c 163e
00000240: 983c 79bc 64d3 acbd eb77 3dbc abf7 17be
00000250: a629 cdba 9cfa e2bd a776 0abd e103 c03d
00000260: bf7b 33be 1e25 6abe cc33 783c bb58 d83d
00000270: 9d56 a1bd 6806 bfbd 869c 473d d463 523e
00000280: 0fa9 103c 9366 08be 8ecb bcbd 079f 3abe
00000290: dc62 ebbd ba1d cfbc de0a 703d 7b8c eebd
000002a0: 6a21 9b3d 3ff6 8d3e bda9 1ebe f434 a5bd
000002b0: 1819 44be 0533 113e 030d fb3d 450f 7bbd
000002c0: c84c d33c 4cdf 9ebd 2b03 76bd 840a 7e3c
000002d0: 7195 b33d 11fe b4bd 632b 61be 2354 dc3d
000002e0: 83ae 26bc aa53 92bd 4db3 9dbd ce64 143c
000002f0: 26d9 ed3d 1202 2ebe 508f f33d aab6 603d
00000300: 3888 103e 7b08 373d 4e3e 62bc bf59 173c
00000310: 0f3d 71be a9b6 d8bd 7c7f 74bd e9fb a2be
00000320: a874 8dbe 6c93 71bd f1f5 703e 62c8 37be
00000330: db65 66be 46e4 663e e12d 143d 9f30 51bd
00000340: ce33 4abd 6de2 9cbc 9d4a 5ebe 6653 22bd
00000350: 2b7d bbbd c00d ecbc c952 033e 5364 7ebd
00000360: d54a 20bb 3f2a 4bbe 7580 de3d 4dc8 033e
00000370: 6bcc d9bc f690 9a3c ebeb 78be 7f16 11be
00000380: 2840 8e3d 6f53 0ebe a740 fa3d 6a82 873c
00000390: 9f18 8c3d eb47 a53d da61 12bd 11e8 393d
000003a0: 6558 02be 8609 2ebe 027b ac3d f071 a2bd
000003b0: c2d9 c3bc e37a 813d 0734 d0bd 29be 51bd
000003c0: 2926 80bd 41d2 7dbd 3589 39bd 0441 a93d
000003d0: 7a07 6e3c 4dbe 1a3d 2427 f5bd ed1b 13bd
000003e0: b871 b93c 828b dbbd ef1c 3bbd aa23 593c
000003f0: dcfd b1be b269 96bb 10e1 80bd 3567 ed3d
-0.03071878 -0.07723594 -0.100637496 -0.024906008 -0.05851598 -0.07753002 0.02633172 0.14602529
0.035885774 -0.03229834 -0.0012636024 -0.015161229 0.012810574 0.09958528 0.15506446 0.013170055
-0.022228269 -0.05864133 -0.064488 -0.045226 -0.022886498 -0.03847192 0.13190322 0.14265628
0.05221172 -0.042110957 -0.042203147 -0.011469797 -0.053272128 -0.002267976 0.005007404 -0.08427842
-0.12197127 -0.064188205 -0.040714636 -0.08766878 0.030248145 -0.012138616 0.009358595 0.008816007
-0.07377539 -0.1706989 -0.04456328 -0.021524813 -0.0631527 -0.09529375 -0.15072373 -0.10427177
-0.09271137 0.056980796 0.14214244 0.0064016436 0.08155442 0.08248853 -0.052071616 -0.21958694
-0.12069111 -0.1641341 -0.02366686 -0.03072982 0.24075201 0.0275986 0.027174823 -0.024537386
-0.017178576 -0.012330926 -0.0819176 -0.054319166 0.032849185 -0.016218469 0.1260725 0.12362732
-0.07167791 0.021405201 -0.06583283 -0.04620983 -0.12530735 -0.051852804 -0.08902987 -0.006352876
-0.15791297 -0.17340636 -0.0700941 -0.08970604 -0.103236385 -0.114591256 -0.06212498 -0.11393875
-0.11044036 0.021343088 0.036695972 0.06314602 0.10639945 -0.09214089 -0.124585345 -0.0872092
-0.029930677 0.050738886 0.06055042 -0.008697717 0.022521766 0.028668541 -0.063927054 -0.079741694
-0.06405183 0.0055028372 0.15182011 -0.03142565 -0.06232878 -0.08846762 -0.05958907 -0.057923328
-0.014715291 0.06991955 -0.070827685 -0.04629319 0.0035938735 -0.0025852348 0.066972 0.04926059
0.014865482 -0.03877064 -0.058819283 -0.09018048 -0.02158279 -0.027447073 -0.028437966 -0.10202274
0.03154944 -0.036291443 -0.13716713 -0.14328569 -0.035775177 -0.09960987 0.131723 0.06543683
-0.0008080706 0.0036743316 0.027613018 0.054361455 0.018960802 0.084735766 0.07881819 0.14665483
-0.015212201 -0.08438757 -0.011564235 -0.14840572 -0.0015652671 -0.11082956 -0.033804562 0.0937574
-0.17527674 -0.22865722 0.015149068 0.10563799 -0.07877848 -0.09327394 0.048733257 0.20545894
0.008829369 -0.13320379 -0.092185125 -0.18224727 -0.11493465 -0.02528273 0.058604114 -0.11647888
0.075747326 0.27726933 -0.15494438 -0.08066741 -0.19150198 0.14179619 0.12258341 -0.06129386
0.025793448 -0.07757434 -0.060061615 0.015505437 0.08768738 -0.08837522 -0.21989207 0.10758235
-0.010173443 -0.07144864 -0.077002145 0.009057237 0.116136834 -0.16992977 0.11892569 0.054861702
0.14114463 0.044685822 -0.0138088 0.009237706 -0.23558448 -0.10581715 -0.05969189 -0.31832817
-0.27628064 -0.058978483 0.23531319 -0.17947534 -0.22499792 0.22548017 0.036176566 -0.05107176
-0.04936581 -0.019150937 -0.2170815 -0.039630316 -0.09154733 -0.02881515 0.12824549 -0.062107395
-0.0024458666 -0.19840334 0.10864345 0.12869377 -0.026586732 0.01886795 -0.24308746 -0.14168738
0.069458306 -0.13899015 0.12219363 0.016541678 0.068406336 0.08070358 -0.03573785 0.04538733
-0.12729032 -0.1699582 0.084218994 -0.07931888 -0.023907546 0.06322267 -0.101661734 -0.05120674
-0.062572785 -0.061968092 -0.045296866 0.08264354 0.01452815 0.03777914 -0.11970356 -0.035915304
0.022637233 -0.107199684 -0.04568189 0.013253132 -0.34763992 -0.0045902366 -0.06292927 0.11591951

conv2.bias f4 [32]
00000000: b592 e8bc 0212 b2bb 4fce da3d 267d 563e
00000010: ee2d 623e 1a53 79be de18 853d c38f 2d3e
00000020: 6442 f03d 25df c2be 3516 e43d 1e3b ea3c
00000030: f32d 0e3e aa63 2abd a58d edbe 7841 443b
00000040: 3c34 983c 6f2b 323e 5e51 82bd e947 c8bc
00000050: 8e3e 12bd 5eca af3d 327b dd3d 7454 bbbd
00000060: bfcd 5cbe 2f3b 93bd b69a 15be 2780 ddbc
00000070: 36b0 9e3e a3ed d3bc 8dcd 9e3c a30b c9bd
-0.028390268 -0.0054342756 0.106838815 0.20946178 0.22087833 -0.24348107 0.06498884 0.16949372
0.11731413 -0.3806087 0.11137048 0.028592642 0.13884716 -0.041598953 -0.4639713 0.002994625
0.018579595 0.17399381 -0.06363176 -0.024448352 -0.035704188 0.0858352 0.10814513 -0.091469675
-0.21562861 -0.07189023 -0.14609799 -0.027038647 0.30993813 -0.02587015 0.019385124 -0.09816673

fc2.weight f4 [2, 60]
00000000: 8214 74be 7cd5 1b3e d594 86be 91ca 8abe
00000010: 0ee9 e9bd aa0b 5f3e 0dd5 463e 1c8c aebe
00000020: 9206 5d3e 755d 143d 01fd 97be f9df c5be
00000030: a226 a5be 8cf4 97bd 82ba d3bc 916e 6cbe
00000040: 4a7f aabe ab0a 283e 8ba8 883e 61f6 0d3e
00000050: e860 44be b4c5 7f3e bd4b 5abe 9160 1bbe
00000060: c280 f6bd b304 1f3e 9f9f 2ebe d2e6 6f3e
00000070: e25c afbd 8bf6 65be 7df8 4c3e c369 123e
00000080: 71d3 8b3e eae1 343e 9f47 3a3e f817 393e
00000090: ee11 7b3e 3115 57bc aeca 673e 67eb 4bbd
000000a0: 3313 153e 604c 243e 98a9 cb3d a815 18be
000000b0: dedd 163e 22b6 0f3e 4b22 b8be 56f3 90be
000000c0: 34a8 293e d9f3 953e b72a 92be 3514 45be
000000d0: 822c cb3d 445e 80be 2f1c 4d3e d05a 8ebe
000000e0: 8a87 59be 4d0a cd3d c801 843e d0ed 493e
000000f0: 78cd ea3d 777d a6be 8f4c 093e 31b6 7b3e
00000100: 7f89 333e 34fd 2dbe bc40 cebd a882 a43e
00000110: a20f c5bd 931a 1b3c 00cd 943e c206 c33e
00000120: b9ee e43d 334c 623d 22ec 97bd ed78 193e
00000130: dace 753e 51f3 88be 32b0 9bbe 9571 5fbe
00000140: 716c 5f3e 448c 72be 6fbb 503e fea0 233e
00000150: e5b7 86bd ce33 5abe 9e61 ae3e 498c 73be
00000160: 07dd 3f3e bfda b43e 00c1 abbe a4d3 41bd
00000170: 63fe 87be 0c91 94be d71f 63be 9ae8 2dbe
00000180: 5a3c dabd 31c6 fbbd 1d39 32be d716 163b
00000190: 74c3 5bbe 7c76 9cbe e2b5 80bd 2d8c 343e
000001a0: 05bf 22be 52ec 52be 11c9 953e f885 933e
000001b0: c681 dfbd 08e3 72be 2c4c a83e 106a 8d3e
000001c0: cae5 6fbe 5ceb 5d3e 09ab 60be 695a 5b3e
000001d0: dc67 003e 6722 6cbe 06a5 89be e6eb 87be
-0.23835948 0.15218157 -0.26285425 -0.2710767 -0.11421405 0.21781793 0.1941721 -0.3409127
0.21584538 0.03622194 -0.29685214 -0.3864744 -0.32256037 -0.074196905 -0.02584577 -0.23089053
-0.3330024 0.1641032 0.26691088 0.13863517 -0.19177592 0.24977762 -0.21317954 -0.15173556
-0.12036277 0.15529136 -0.17053078 0.23427895 -0.08562638 -0.2245733 0.20016666 0.14298157
0.27309754 0.17664304 0.18191384 0.1807555 0.24518558 -0.013127611 0.2263591 -0.049785044
0.14558105 0.1604476 0.09944457 -0.14852011 0.14733073 0.14034322 -0.35963663 -0.2831065
0.1656807 0.29287603 -0.28548214 -0.1924599 0.099205986 -0.2507192 0.20030282 -0.2780366
-0.2124311 0.1001173 0.2578261 0.19719625 0.11464971 -0.32517597 0.13408111 0.2458122
0.1753292 -0.1699112 -0.10070941 0.32130933 -0.09622122 0.009466785 0.29062653 0.38091093
0.11178345 0.05524845 -0.07418086 0.14987536 0.24004689 -0.26748136 -0.30407864 -0.21820672
0.21818711 -0.2368632 0.20384 0.15979382 -0.06578044 -0.21308824 0.3405885 -0.23783983
0.18736659 0.3532314 -0.33545685 -0.047320977 -0.2656127 -0.29016912 -0.22180115 -0.16983262
-0.106560424 -0.122936614 -0.174046 0.0022901797 -0.21461278 -0.30559146 -0.062846914 0.17631598
-0.1589318 -0.20597962 0.29254964 0.28813148 -0.10913424 -0.23719418 0.32870615 0.27619982
-0.23427501 0.21671814 -0.21940245 0.21421207 0.12539619 -0.23059998 -0.26883715 -0.26547164

fc2.bias f4 [2]
00000000: 0746 273d 48e9 8e3d
0.040838268 0.069780886

fc1.weight f4 [60, 2048]
00000000: a872 03bc 2648 823b 4f14 253d d865 173c
00000010: 59eb 8f3c 036b 19bc b17e a7bc cc73 943c
00000020: 89d9 b4bb 458a c53b d4e3 4f3c bfec 5f39
00000030: 2a12 6a3d 5bff 6e3d 2e8c 833c 46c8 87bb
00000040: 8108 67bc 36c3 00bd a726 0ebd a007 f2bb
00000050: 72d6 54bc 0e38 aabb e300 a73c bbe5 463c
00000060: 23b2 3cbb 6d9e b53c b50d 12bd c4f8 a3bc
00000070: af5a 17bd 6056 ce3b 21a0 50bd 4a96 0abd
00000080: 93ec 77b9 3fda 1f3a 5b0e 25bc 15fb 1ebb
00000090: 5809 ff39 bb2f 46bd 6ca1 14bd f45f 4a3c
000000a0: 5b56 be39 0046 a0ba 58f5 39bd ff99 61bd
000000b0: 241c d1bc fb2d 233b 7b1f 0b3c 621e 5bbc
000000c0: 6601 b13c 6d4b 403c 36fb f03c c675 2d3d
000000d0: 252c 763d c863 e33c 2d24 15bd 9d88 23bc
000000e0: d2ce fe3c 755c 083d 4569 443c e573 0ab6
000000f0: af9d 543c 4b57 f5bc ea65 ef3a 22a9 39bc
00000100: 021c c9bc 7fec e3bc 3f4a 60bc 0aaf 0bbd
00000110: 180b 00bd 31ad 52ba 7f80 55bd af3c 7d3c
00000120: 3596 89bc e6a2 9ebc be3c ef3a ae11 cb3b
00000130: 2a69 8abc 9a8d 9b3b 16d7 023e 87a4 903c
00000140: 3760 573c 7e38 d73c f9a7 da3c 68d1 403d
00000150: dab7 693d b0e7 ef3c 6c56 993c 4883 5b3b
00000160: 4d71 38bd 3f57 233d 1af9 eb3c 2c3d 8d3d
00000170: 3ede 153d b2e7 da3c 2fb2 a83c ff73 6cbd
00000180: 0648 a6bc 5099 063d 7284 d4bb 5d14 8f3c
00000190: b14e 653d 08d9 823d 26b1 b43c ff1d 1fbd
000001a0: 4f6d b63b 7a12 1e3d 1c9b 843c f253 033d
000001b0: f489 fc3c 86ab 0a3d b659 0f3d 4e0a 11bd
000001c0: 8503 b83b 2c96 a4bc 35f4 813b 66eb 713c
000001d0: f967 493c 89b7 89bc d8c7 fb3a c507 d2bc
000001e0: 4781 d13c 6987 61bc d479 3cbd a10b 3abc
000001f0: 31ca a33b 06a7 04bc fe81 e8bc e00e d03a
00000200: 1a06 20bd e68b 0bbd 1bbc 3bbd bb17 33bd
00000210: 8ac0 d8bc fad3 16bd 6952 bb3a 56a6 32bd
00000220: b39d 9bbc d80d 5fba c38e 683c 2498 ce3c
00000230: 0607 0e3c 4c80 983d 78ec b23c 9111 c7bb
00000240: e518 d63c bc06 37bb 8cab ce3c 7c68 b43c
00000250: d611 5f3d 5545 823d 5476 723d 183d db3c
00000260: d873 173d 20d5 803d 7e36 373d a8e6 1b3d
00000270: ead6 983c 2c75 793d 0409 c93b 02f7 e8bc
00000280: 496d 1fbd fc2e b93c 562f 6c3b a55c fbbc
00000290: 0aee 23bd 092f c6bc c32b 18bb aa29 13bb
000002a0: c80a 53bc 7926 3e3d e076 e2bc a1b2 2a3a
000002b0: e6fb 7abc 37f6 4a3c 31eb 0b3d 85b0 203c
000002c0: 02a0 9e3a 2735 20bd 5b33 6dbc 8981 b1bc
000002d0: 5bcf 323d fa28 813d 7a95 72bc e631 213c
000002e0: c18f 0b3d 39a5 bb3c a5f2 e5bc a9bf d23c
000002f0: 79e7 e43c d1d3 ec3c 3739 e2bc 2220 cebc
00000300: 3310 af3b d6e1 0e3c 2b1a 053c 2515 683a
00000310: 55ba a5bb e466 3abc 14b8 fdba 1297 12bd
00000320: 28d6 0dbd b320 a2ba 0294 ab3c f09e 133a
00000330: 8a7b 9b3c 5e36 253c 8f56 ee3c 8117 1d3d
00000340: ac73 13b9 24b1 123d 4fc5 053d 280c 4a3b
00000350: 98c4 393c d558 61bb 2d7f 0e3b d236 2e3d
00000360: 5a95 b7bc 702b 1d3d 64a4 a43b d12d ce3c
00000370: efbd 40bd f815 713a d4cd c03c 4b53 f33c
00000380: bcad ce3b 5be9 a93c ec20 273b 266a 053c
00000390: 22e0 ec3a 90be 55bc 6552 053b 8287 ee3b
000003a0: 29e6 fc3b 8f95 9a3b 53cc ddba 6fd6 2f3d
000003b0: d937 873c f1cb 99bc 0609 2fbd b462 723c
000003c0: 0199 813a 21ab 1bbd 50c4 303b 46c8 2c3d
000003d0: c267 0e3d 5fc3 b2bc 5af5 eebb 507b 68bc
000003e0: 5a98 45bc bb5a 13bb 8214 48bc 2bc4 ecbc
000003f0: 8000 59bd 8052 90bc 8886 53bb 2e45 b83c
-0.008022942 0.003975886 0.04030257 0.00924059 0.017568277 -0.0093638925 -0.020446153 0.018121623
-0.0055190963 0.006028446 0.012688596 0.00021355132 0.05714623 0.058348995 0.016058054 -0.0041437475
-0.014101149 -0.031436168 -0.03470483 -0.007386163 -0.012990581 -0.0051946705 0.020386165 0.012139733
-0.0028792701 0.02217027 -0.035657603 -0.020016082 -0.036951717 0.006296918 -0.05093396 -0.033834733
-0.00023643886 0.000609789 -0.010074223 -0.0024258543 0.00048644352 -0.048385363 -0.036286756 0.012351979
0.00036303964 -0.0012227893 -0.045399994 -0.055078503 -0.025526114 0.0024899233 0.008491392 -0.013373943
0.021607112 0.011736733 0.029416662 0.042348646 0.060100693 0.02775754 -0.036411453 -0.009981302
0.031104479 0.0332913 0.011987989 -2.0631062e-06 0.012977048 -0.029948851 0.0018264626 -0.011331828
-0.024549488 -0.027822731 -0.013689577 -0.034102477 -0.03126058 -0.0008036672 -0.052124497 0.015456363
-0.016795257 -0.019364785 0.0018252356 0.006197176 -0.01689585 0.004747105 0.12777361 0.017656578
0.013145498 0.026272055 0.026691424 0.047074705 0.0570601 0.029285282 0.018717967 0.0033494998
-0.045029927 0.039878126 0.028805304 0.06896433 0.0365889 0.026721809 0.020592777 -0.05772781
-0.020298015 0.032861054 -0.0064855153 0.017465765 0.05598325 0.06389052 0.022057127 -0.038846966
0.00556723 0.03859184 0.016187243 0.03206248 0.0308275 0.033854984 0.034997664 -0.035410218
0.005615654 -0.020091139 0.0039658793 0.014765596 0.012292855 -0.01681115 0.0019209338 -0.02563847
0.02557434 -0.013765194 -0.04601462 -0.011355312 0.0049984683 -0.008096462 -0.028382298 0.0015873574
-0.03906832 -0.034068964 -0.04583369 -0.043723803 -0.026458997 -0.03682325 0.0014291528 -0.04361566
-0.018996095 -0.0008508838 0.014194193 0.02521903 0.008668667 0.07446346 0.021841273 -0.006075092
0.026134918 -0.0027927598 0.025228284 0.022022478 0.05446037 0.0636088 0.059194878 0.02676253
0.03697571 0.0629065 0.044729702 0.038061768 0.018657167 0.06090276 0.006135108 -0.028438095
-0.03892258 0.022605412 0.0036038957 -0.030683825 -0.040021934 -0.02419235 -0.0023219443 -0.0022455254
-0.012880988 0.04642341 -0.027644575 0.0006511603 -0.015318846 0.012387804 0.034159843 0.009807711
0.0012102129 -0.03911319 -0.014477576 -0.021668212 0.04365478 0.06306644 -0.014806146 0.009838557
0.03407264 0.022905933 -0.028069803 0.025726156 0.027942406 0.028909596 -0.027615173 -0.025161806
0.0053425073 0.008720836 0.008123915 0.00088532484 -0.005057613 -0.01137707 -0.0019357228 -0.035788603
-0.034628063 -0.0012369364 0.020944599 0.00056312885 0.018979806 0.010083763 0.029094009 0.038352493
-0.00014062104 0.035813466 0.03265887 0.003083 0.0113383755 -0.0034385223 0.0021743283 0.04253275
-0.022410084 0.038371503 0.0050244797 0.025168331 -0.047056135 0.0009196694 0.023535646 0.029702803
0.006307332 0.020741155 0.00255018 0.008142984 0.0018072168 -0.013045922 0.00203433 0.0072793374
0.007717867 0.004717536 -0.0016921855 0.04292911 0.016506122 -0.018774005 -0.042733215 0.0147940405
0.0009887518 -0.038004998 0.002697248 0.042183183 0.03476692 -0.021821676 -0.007292432 -0.014189556
-0.012060249 -0.00224845 -0.012211921 -0.028902134 -0.052978992 -0.017617464 -0.0032276232 0.022493925

fc1.bias f4 [60]
00000000: 5526 333c d7d9 4c3e a9c8 66bd 91ac 70bc
00000010: 1a60 9dbd ce98 843e 1380 d43d 7436 283d
00000020: 1c05 173d 602b babb 2eee a5bd 2bb7 a43d
00000030: 8b98 38bc 48cf 21bc 276c a039 b776 6abd
00000040: 001b c33d b626 b43d b397 123e 5010 7c3e
00000050: 93c1 b2bd c158 8c3e e8b7 e7bc d428 6bbc
00000060: 4f59 9bbc c04e f43d 6318 af3d c61f b43e
00000070: a25a a43c 9a9f 93bb 5144 933e c091 093c
00000080: 721a 833e 27e5 ac3e 05f1 773e 36ef 473e
00000090: d756 243e aab4 15bc cc1c 7c3e 7178 97b9
000000a0: 7d48 2c3e 76e2 b63e 453d d13c b11e f7bc
000000b0: f6de 883e 8183 973e 5645 bc3d eab0 c63d
000000c0: 0e4a d43d 9810 853e 3800 e53d b45c 37bd
000000d0: 27a9 993d 7a01 193d e0c1 833e 9bb7 55bd
000000e0: f934 1dbd 8212 8f3e 588d 3c3e 000c 8e3e
0.010934432 0.20004974 -0.05634371 -0.014689581 -0.076843455 0.2589783 0.10375991 0.041067556
0.036870107 -0.0056814402 -0.0810207 0.08042749 -0.011266838 -0.00987608 0.00030598158 -0.05724212
0.09526634 0.08796446 0.14315681 0.24615598 -0.087283276 0.27411464 -0.028285936 -0.014352996
-0.018963484 0.11929083 0.08549573 0.3518049 0.020062748 -0.00450511 0.2876306 0.008396566
0.25606114 0.3376858 0.24213035 0.19524845 0.16048752 -0.009137312 0.2462036 -0.000288907
0.16824527 0.3571965 0.02554191 -0.030166002 0.26732606 0.29592517 0.09192912 0.097017124
0.10365687 0.25989223 0.11181682 -0.044766143 0.075029664 0.037354924 0.25733852 -0.052177053
-0.038380597 0.27943808 0.18413293 0.2774353
